…
decode_head.fusion_blocks.3.res_conv_unit2.conv2.conv.weight - torch.Size([256, 256, 3, 3]): 
The value is the same before and after calling `init_weights` of DepthEncoderDecoder  

decode_head.project.conv.weight - torch.Size([256, 256, 3, 3]): 
Initialized by user-defined `init_weights` in ConvModule  

decode_head.project.conv.bias - torch.Size([256]): 
The value is the same before and after calling `init_weights` of DepthEncoderDecoder  
2022-06-05 00:26:00,824 - depth - INFO - DepthEncoderDecoder(
  (backbone): VisionTransformer(
    (patch_embed): PatchEmbed(
      (adap_padding): AdaptivePadding()
      (projection): Conv2d(3, 768, kernel_size=(16, 16), stride=(16, 16))
    )
    (drop_after_pos): Dropout(p=0.0, inplace=False)
    (layers): ModuleList(
      (0): TransformerEncoderLayer(
        (ln1): LayerNorm((768,), eps=1e-05, elementwise_affine=True)
        (attn): MultiheadAttention(
          (attn): MultiheadAttention(
            (out_proj): _LinearWithBias(in_features=768, out_features=768, bias=True)
          )
          (proj_drop): Dropout(p=0.0, inplace=False)
          (dropout_layer): DropPath()
        )
        (ln2): LayerNorm((768,), eps=1e-05, elementwise_affine=True)
        (ffn): FFN(
          (activate): GELU()
          (layers): Sequential(
            (0): Sequential(
              (0): Linear(in_features=768, out_features=3072, bias=True)
              (1): GELU()
              (2): Dropout(p=0.0, inplace=False)
            )
            (1): Linear(in_features=3072, out_features=768, bias=True)
            (2): Dropout(p=0.0, inplace=False)
          )
          (dropout_layer): DropPath()
        )
      )
      (1): TransformerEncoderLayer(
        (ln1): LayerNorm((768,), eps=1e-05, elementwise_affine=True)
        (attn): MultiheadAttention(
          (attn): MultiheadAttention(
            (out_proj): _LinearWithBias(in_features=768, out_features=768, bias=True)
          )
          (proj_drop): Dropout(p=0.0, inplace=False)
          (dropout_layer): DropPath()
        )
        (ln2): LayerNorm((768,), eps=1e-05, elementwise_affine=True)
        (ffn): FFN(
          (activate): GELU()
          (layers): Sequential(
            (0): Sequential(
              (0): Linear(in_features=768, out_features=3072, bias=True)
              (1): GELU()
              (2): Dropout(p=0.0, inplace=False)
            )
            (1): Linear(in_features=3072, out_features=768, bias=True)
            (2): Dropout(p=0.0, inplace=False)
          )
          (dropout_layer): DropPath()
        )
      )
      (2): TransformerEncoderLayer(
        (ln1): LayerNorm((768,), eps=1e-05, elementwise_affine=True)
        (attn): MultiheadAttention(
          (attn): MultiheadAttention(
            (out_proj): _LinearWithBias(in_features=768, out_features=768, bias=True)
          )
          (proj_drop): Dropout(p=0.0, inplace=False)
          (dropout_layer): DropPath()
        )
        (ln2): LayerNorm((768,), eps=1e-05, elementwise_affine=True)
        (ffn): FFN(
          (activate): GELU()
          (layers): Sequential(
            (0): Sequential(
              (0): Linear(in_features=768, out_features=3072, bias=True)
              (1): GELU()
              (2): Dropout(p=0.0, inplace=False)
            )
            (1): Linear(in_features=3072, out_features=768, bias=True)
            (2): Dropout(p=0.0, inplace=False)
          )
          (dropout_layer): DropPath()
        )
      )
      (3): TransformerEncoderLayer(
        (ln1): LayerNorm((768,), eps=1e-05, elementwise_affine=True)
        (attn): MultiheadAttention(
          (attn): MultiheadAttention(
            (out_proj): _LinearWithBias(in_features=768, out_features=768, bias=True)
          )
          (proj_drop): Dropout(p=0.0, inplace=False)
          (dropout_layer): DropPath()
        )
        (ln2): LayerNorm((768,), eps=1e-05, elementwise_affine=True)
        (ffn): FFN(
          (activate): GELU()
          (layers): Sequential(
            (0): Sequential(
              (0): Linear(in_features=768, out_features=3072, bias=True)
              (1): GELU()
              (2): Dropout(p=0.0, inplace=False)
            )
            (1): Linear(in_features=3072, out_features=768, bias=True)
            (2): Dropout(p=0.0, inplace=False)
          )
          (dropout_layer): DropPath()
        )
      )
      (4): TransformerEncoderLayer(
        (ln1): LayerNorm((768,), eps=1e-05, elementwise_affine=True)
        (attn): MultiheadAttention(
          (attn): MultiheadAttention(
            (out_proj): _LinearWithBias(in_features=768, out_features=768, bias=True)
          )
          (proj_drop): Dropout(p=0.0, inplace=False)
          (dropout_layer): DropPath()
        )
        (ln2): LayerNorm((768,), eps=1e-05, elementwise_affine=True)
        (ffn): FFN(
          (activate): GELU()
          (layers): Sequential(
            (0): Sequential(
              (0): Linear(in_features=768, out_features=3072, bias=True)
              (1): GELU()
              (2): Dropout(p=0.0, inplace=False)
            )
            (1): Linear(in_features=3072, out_features=768, bias=True)
            (2): Dropout(p=0.0, inplace=False)
          )
          (dropout_layer): DropPath()
        )
      )
      (5): TransformerEncoderLayer(
        (ln1): LayerNorm((768,), eps=1e-05, elementwise_affine=True)
        (attn): MultiheadAttention(
          (attn): MultiheadAttention(
            (out_proj): _LinearWithBias(in_features=768, out_features=768, bias=True)
          )
          (proj_drop): Dropout(p=0.0, inplace=False)
          (dropout_layer): DropPath()
        )
        (ln2): LayerNorm((768,), eps=1e-05, elementwise_affine=True)
        (ffn): FFN(
          (activate): GELU()
          (layers): Sequential(
            (0): Sequential(
              (0): Linear(in_features=768, out_features=3072, bias=True)
              (1): GELU()
              (2): Dropout(p=0.0, inplace=False)
            )
            (1): Linear(in_features=3072, out_features=768, bias=True)
            (2): Dropout(p=0.0, inplace=False)
          )
          (dropout_layer): DropPath()
        )
      )
      (6): TransformerEncoderLayer(
        (ln1): LayerNorm((768,), eps=1e-05, elementwise_affine=True)
        (attn): MultiheadAttention(
          (attn): MultiheadAttention(
            (out_proj): _LinearWithBias(in_features=768, out_features=768, bias=True)
          )
          (proj_drop): Dropout(p=0.0, inplace=False)
          (dropout_layer): DropPath()
        )
        (ln2): LayerNorm((768,), eps=1e-05, elementwise_affine=True)
        (ffn): FFN(
          (activate): GELU()
          (layers): Sequential(
            (0): Sequential(
              (0): Linear(in_features=768, out_features=3072, bias=True)
              (1): GELU()
              (2): Dropout(p=0.0, inplace=False)
            )
            (1): Linear(in_features=3072, out_features=768, bias=True)
            (2): Dropout(p=0.0, inplace=False)
          )
          (dropout_layer): DropPath()
        )
      )
      (7): TransformerEncoderLayer(
        (ln1): LayerNorm((768,), eps=1e-05, elementwise_affine=True)
        (attn): MultiheadAttention(
          (attn): MultiheadAttention(
            (out_proj): _LinearWithBias(in_features=768, out_features=768, bias=True)
          )
          (proj_drop): Dropout(p=0.0, inplace=False)
          (dropout_layer): DropPath()
        )
        (ln2): LayerNorm((768,), eps=1e-05, elementwise_affine=True)
        (ffn): FFN(
          (activate): GELU()
          (layers): Sequential(
            (0): Sequential(
              (0): Linear(in_features=768, out_features=3072, bias=True)
              (1): GELU()
              (2): Dropout(p=0.0, inplace=False)
            )
            (1): Linear(in_features=3072, out_features=768, bias=True)
            (2): Dropout(p=0.0, inplace=False)
          )
          (dropout_layer): DropPath()
        )
      )
      (8): TransformerEncoderLayer(
        (ln1): LayerNorm((768,), eps=1e-05, elementwise_affine=True)
        (attn): MultiheadAttention(
          (attn): MultiheadAttention(
            (out_proj): _LinearWithBias(in_features=768, out_features=768, bias=True)
          )
          (proj_drop): Dropout(p=0.0, inplace=False)
          (dropout_layer): DropPath()
        )
        (ln2): LayerNorm((768,), eps=1e-05, elementwise_affine=True)
        (ffn): FFN(
          (activate): GELU()
          (layers): Sequential(
            (0): Sequential(
              (0): Linear(in_features=768, out_features=3072, bias=True)
              (1): GELU()
              (2): Dropout(p=0.0, inplace=False)
            )
            (1): Linear(in_features=3072, out_features=768, bias=True)
            (2): Dropout(p=0.0, inplace=False)
          )
          (dropout_layer): DropPath()
        )
      )
      (9): TransformerEncoderLayer(
        (ln1): LayerNorm((768,), eps=1e-05, elementwise_affine=True)
        (attn): MultiheadAttention(
          (attn): MultiheadAttention(
            (out_proj): _LinearWithBias(in_features=768, out_features=768, bias=True)
          )
          (proj_drop): Dropout(p=0.0, inplace=False)
          (dropout_layer): DropPath()
        )
        (ln2): LayerNorm((768,), eps=1e-05, elementwise_affine=True)
        (ffn): FFN(
          (activate): GELU()
          (layers): Sequential(
            (0): Sequential(
              (0): Linear(in_features=768, out_features=3072, bias=True)
              (1): GELU()
              (2): Dropout(p=0.0, inplace=False)
            )
            (1): Linear(in_features=3072, out_features=768, bias=True)
            (2): Dropout(p=0.0, inplace=False)
          )
          (dropout_layer): DropPath()
        )
      )
      (10): TransformerEncoderLayer(
        (ln1): LayerNorm((768,), eps=1e-05, elementwise_affine=True)
        (attn): MultiheadAttention(
          (attn): MultiheadAttention(
            (out_proj): _LinearWithBias(in_features=768, out_features=768, bias=True)
          )
          (proj_drop): Dropout(p=0.0, inplace=False)
          (dropout_layer): DropPath()
        )
        (ln2): LayerNorm((768,), eps=1e-05, elementwise_affine=True)
        (ffn): FFN(
          (activate): GELU()
          (layers): Sequential(
            (0): Sequential(
              (0): Linear(in_features=768, out_features=3072, bias=True)
              (1): GELU()
              (2): Dropout(p=0.0, inplace=False)
            )
            (1): Linear(in_features=3072, out_features=768, bias=True)
            (2): Dropout(p=0.0, inplace=False)
          )
          (dropout_layer): DropPath()
        )
      )
      (11): TransformerEncoderLayer(
        (ln1): LayerNorm((768,), eps=1e-05, elementwise_affine=True)
        (attn): MultiheadAttention(
          (attn): MultiheadAttention(
            (out_proj): _LinearWithBias(in_features=768, out_features=768, bias=True)
          )
          (proj_drop): Dropout(p=0.0, inplace=False)
          (dropout_layer): DropPath()
        )
        (ln2): LayerNorm((768,), eps=1e-05, elementwise_affine=True)
        (ffn): FFN(
          (activate): GELU()
          (layers): Sequential(
            (0): Sequential(
              (0): Linear(in_features=768, out_features=3072, bias=True)
              (1): GELU()
              (2): Dropout(p=0.0, inplace=False)
            )
            (1): Linear(in_features=3072, out_features=768, bias=True)
            (2): Dropout(p=0.0, inplace=False)
          )
          (dropout_layer): DropPath()
        )
      )
    )
  )
  init_cfg={'type': 'Pretrained', 'checkpoint': 'nfs/checkpoints/jx_vit_base_p16_224-80ecf9dd.pth'}
  (decode_head): DPTHead(
    align_corners=False
    (loss_decode): SigLoss()
    (conv_depth): HeadDepth(
      (head): Sequential(
        (0): Conv2d(256, 128, kernel_size=(3, 3), stride=(1, 1), padding=(1, 1))
        (1): Interpolate()
        (2): Conv2d(128, 32, kernel_size=(3, 3), stride=(1, 1), padding=(1, 1))
        (3): ReLU()
        (4): Conv2d(32, 1, kernel_size=(1, 1), stride=(1, 1))
      )
    )
    (relu): ReLU()
    (sigmoid): Sigmoid()
    (reassemble_blocks): ReassembleBlocks(
      (projects): ModuleList(
        (0): ConvModule(
          (conv): Conv2d(768, 96, kernel_size=(1, 1), stride=(1, 1))
        )
        (1): ConvModule(
          (conv): Conv2d(768, 192, kernel_size=(1, 1), stride=(1, 1))
        )
        (2): ConvModule(
          (conv): Conv2d(768, 384, kernel_size=(1, 1), stride=(1, 1))
        )
        (3): ConvModule(
          (conv): Conv2d(768, 768, kernel_size=(1, 1), stride=(1, 1))
        )
      )
      (resize_layers): ModuleList(
        (0): ConvTranspose2d(96, 96, kernel_size=(4, 4), stride=(4, 4))
        (1): ConvTranspose2d(192, 192, kernel_size=(2, 2), stride=(2, 2))
        (2): Identity()
        (3): Conv2d(768, 768, kernel_size=(3, 3), stride=(2, 2), padding=(1, 1))
      )
      (readout_projects): ModuleList(
        (0): Sequential(
          (0): Linear(in_features=1536, out_features=768, bias=True)
          (1): GELU()
        )
        (1): Sequential(
          (0): Linear(in_features=1536, out_features=768, bias=True)
          (1): GELU()
        )
        (2): Sequential(
          (0): Linear(in_features=1536, out_features=768, bias=True)
          (1): GELU()
        )
        (3): Sequential(
          (0): Linear(in_features=1536, out_features=768, bias=True)
          (1): GELU()
        )
      )
    )
    (convs): ModuleList(
      (0): ConvModule(
        (conv): Conv2d(96, 256, kernel_size=(3, 3), stride=(1, 1), padding=(1, 1), bias=False)
      )
      (1): ConvModule(
        (conv): Conv2d(192, 256, kernel_size=(3, 3), stride=(1, 1), padding=(1, 1), bias=False)
      )
      (2): ConvModule(
        (conv): Conv2d(384, 256, kernel_size=(3, 3), stride=(1, 1), padding=(1, 1), bias=False)
      )
      (3): ConvModule(
        (conv): Conv2d(768, 256, kernel_size=(3, 3), stride=(1, 1), padding=(1, 1), bias=False)
      )
    )
    (fusion_blocks): ModuleList(
      (0): FeatureFusionBlock(
        (project): ConvModule(
          (conv): Conv2d(256, 256, kernel_size=(1, 1), stride=(1, 1))
        )
        (res_conv_unit1): None
        (res_conv_unit2): PreActResidualConvUnit(
          (conv1): ConvModule(
            (conv): Conv2d(256, 256, kernel_size=(3, 3), stride=(1, 1), padding=(1, 1), bias=False)
            (activate): ReLU(inplace=True)
          )
          (conv2): ConvModule(
            (conv): Conv2d(256, 256, kernel_size=(3, 3), stride=(1, 1), padding=(1, 1), bias=False)
            (activate): ReLU(inplace=True)
          )
        )
      )
      (1): FeatureFusionBlock(
        (project): ConvModule(
          (conv): Conv2d(256, 256, kernel_size=(1, 1), stride=(1, 1))
        )
        (res_conv_unit1): PreActResidualConvUnit(
          (conv1): ConvModule(
            (conv): Conv2d(256, 256, kernel_size=(3, 3), stride=(1, 1), padding=(1, 1), bias=False)
            (activate): ReLU(inplace=True)
          )
          (conv2): ConvModule(
            (conv): Conv2d(256, 256, kernel_size=(3, 3), stride=(1, 1), padding=(1, 1), bias=False)
            (activate): ReLU(inplace=True)
          )
        )
        (res_conv_unit2): PreActResidualConvUnit(
          (conv1): ConvModule(
            (conv): Conv2d(256, 256, kernel_size=(3, 3), stride=(1, 1), padding=(1, 1), bias=False)
            (activate): ReLU(inplace=True)
          )
          (conv2): ConvModule(
            (conv): Conv2d(256, 256, kernel_size=(3, 3), stride=(1, 1), padding=(1, 1), bias=False)
            (activate): ReLU(inplace=True)
          )
        )
      )
      (2): FeatureFusionBlock(
        (project): ConvModule(
          (conv): Conv2d(256, 256, kernel_size=(1, 1), stride=(1, 1))
        )
        (res_conv_unit1): PreActResidualConvUnit(
          (conv1): ConvModule(
            (conv): Conv2d(256, 256, kernel_size=(3, 3), stride=(1, 1), padding=(1, 1), bias=False)
            (activate): ReLU(inplace=True)
          )
          (conv2): ConvModule(
            (conv): Conv2d(256, 256, kernel_size=(3, 3), stride=(1, 1), padding=(1, 1), bias=False)
            (activate): ReLU(inplace=True)
          )
        )
        (res_conv_unit2): PreActResidualConvUnit(
          (conv1): ConvModule(
            (conv): Conv2d(256, 256, kernel_size=(3, 3), stride=(1, 1), padding=(1, 1), bias=False)
            (activate): ReLU(inplace=True)
          )
          (conv2): ConvModule(
            (conv): Conv2d(256, 256, kernel_size=(3, 3), stride=(1, 1), padding=(1, 1), bias=False)
            (activate): ReLU(inplace=True)
          )
        )
      )
      (3): FeatureFusionBlock(
        (project): ConvModule(
          (conv): Conv2d(256, 256, kernel_size=(1, 1), stride=(1, 1))
        )
        (res_conv_unit1): PreActResidualConvUnit(
          (conv1): ConvModule(
            (conv): Conv2d(256, 256, kernel_size=(3, 3), stride=(1, 1), padding=(1, 1), bias=False)
            (activate): ReLU(inplace=True)
          )
          (conv2): ConvModule(
            (conv): Conv2d(256, 256, kernel_size=(3, 3), stride=(1, 1), padding=(1, 1), bias=False)
            (activate): ReLU(inplace=True)
          )
        )
        (res_conv_unit2): PreActResidualConvUnit(
          (conv1): ConvModule(
            (conv): Conv2d(256, 256, kernel_size=(3, 3), stride=(1, 1), padding=(1, 1), bias=False)
            (activate): ReLU(inplace=True)
          )
          (conv2): ConvModule(
            (conv): Conv2d(256, 256, kernel_size=(3, 3), stride=(1, 1), padding=(1, 1), bias=False)
            (activate): ReLU(inplace=True)
          )
        )
      )
    )
    (project): ConvModule(
      (conv): Conv2d(256, 256, kernel_size=(3, 3), stride=(1, 1), padding=(1, 1))
      (activate): ReLU(inplace=True)
    )
  )
)
2022-06-05 00:26:00,868 - depth - INFO - Loaded 23158 images. Totally 0 invalid pairs are filtered
2022-06-05 00:26:06,224 - depth - INFO - Loaded 652 images. Totally 45 invalid pairs are filtered
2022-06-05 00:26:06,225 - depth - INFO - Start running, host: root@mono3d-da-2-master-0, work_dir: /nfs/lizhenyu2/codes/Monocular-Depth-Estimation-Toolbox/nfs/saves/dpt/kitti
…
